ei-computer-vision-nn-classifier-tensorflow-lite-int8-quantized-model.lite (tflite, 57216 bytes, 3 tensors)

sequential/dense/MatMul i1 [64, 784] scale=0.0020599943 zero_point=0
-0.061799828 0.05149986 -0.026779925 0.07621979 -0.047379866 0.07621979 0.01441996 -0.01441996
-0.010299971 0.08239977 0.016479954 -0.030899914 -0.07003981 0.018539948 0.037079897 -0.037079897
-0.07621979 -0.024719931 0.0020599943 -0.037079897 -0.03913989 -0.05355985 0.030899914 -0.008239977
0.06797981 0.05355985 -0.049439862 0.037079897 -0.024719931 0.07003981 0.016479954 0.008239977
0.035019904 0.061799828 0.03295991 -0.041199885 0.016479954 0.047379866 -0.0041199885 0.037079897
0.059739836 0.022659937 0.026779925 0.055619843 0.020599943 0.026779925 0.059739836 0.06591982
0.03295991 -0.016479954 -0.018539948 -0.06797981 -0.02883992 0.04325988 0.01441996 0.010299971
-0.0720998 0.037079897 0.02883992 0.026779925 -0.059739836 0.047379866 0.07827978 0.08239977
-0.016479954 -0.03913989 0.07003981 0.0041199885 -0.08445977 0.07827978 0.03913989 -0.03913989
0.07003981 -0.055619843 -0.035019904 -0.035019904 0.061799828 0.03295991 0.020599943 -0.022659937
-0.0020599943 -0.06591982 -0.0720998 0.059739836 -0.049439862 -0.07415979 0.041199885 -0.049439862
-0.020599943 -0.030899914 0.03913989 -0.045319874 0.045319874 -0.07415979 -0.05149986 -0.05767984
-0.016479954 -0.006179983 -0.06385982 0.03295991 0.0720998 -0.06385982 0.055619843 -0.05149986
-0.018539948 0.06591982 0.026779925 0.012359966 0.022659937 0.049439862 -0.041199885 -0.020599943
-0.03295991 -0.035019904 0.037079897 -0.061799828 0.047379866 -0.0041199885 -0.0041199885 0.018539948
0.03295991 -0.07827978 0.008239977 -0.08239977 0.030899914 -0.045319874 -0.026779925 -0.041199885
0.022659937 0.06591982 -0.020599943 -0.045319874 0.008239977 -0.07003981 -0.07827978 -0.05149986
0.04325988 -0.022659937 0.055619843 -0.06591982 -0.07827978 0.0020599943 -0.05355985 -0.03295991
-0.080339774 -0.012359966 0.030899914 -0.010299971 -0.035019904 -0.008239977 0.02883992 -0.024719931
-0.0720998 0.022659937 -0.0020599943 0.020599943 0.07827978 0.080339774 0.06591982 0.018539948
0.059739836 -0.06385982 0.047379866 -0.06385982 0.03295991 -0.04325988 -0.030899914 0.024719931
-0.008239977 -0.08239977 0.022659937 0.045319874 -0.061799828 -0.07621979 -0.037079897 0.06591982
-0.026779925 -0.049439862 -0.05767984 -0.05767984 0.03295991 0.08445977 -0.037079897 -0.030899914
0.05355985 0.07003981 0.018539948 0.041199885 0.02883992 -0.06591982 0.08239977 0.020599943
-0.0041199885 -0.026779925 0.045319874 -0.04325988 -0.041199885 -0.03913989 -0.026779925 0.059739836
-0.047379866 0.016479954 0.035019904 0.010299971 0.026779925 -0.06591982 0.045319874 -0.07621979
-0.061799828 -0.080339774 -0.07003981 0.022659937 0.008239977 0.0720998 0.0720998 0.01441996
0.024719931 0.07415979 -0.016479954 0.008239977 0.05355985 -0.016479954 -0.07827978 -0.07621979
0.022659937 0.035019904 -0.080339774 -0.07621979 -0.03295991 0.07827978 -0.020599943 -0.016479954
0.08239977 0.024719931 -0.022659937 0.07003981 0.045319874 -0.047379866 0.049439862 0.010299971
0.02883992 -0.04325988 -0.06385982 0.012359966 0.0020599943 -0.047379866 -0.008239977 -0.06385982
0.016479954 -0.0720998 0.018539948 0.07621979 0.07003981 -0.01441996 -0.010299971 0.035019904
00000000: e219 f325 e925 07f9 fb28 08f1 de09 12ee
00000010: dbf4 01ee ede6 0ffc 211a e812 f422 0804
00000020: 111e 10ec 0817 fe12 1d0b 0d1b 0a0d 1d20
00000030: 10f8 f7df f215 0705 dd12 0e0d e317 2628
00000040: f8ed 2202 d726 13ed 22e5 efef 1e10 0af5
00000050: ffe0 dd1d e8dc 14e8 f6f1 13ea 16dc e7e4
00000060: f8fd e110 23e1 1be7 f720 0d06 0b18 ecf6
00000070: f0ef 12e2 17fe fe09 10da 04d8 0fea f3ec
00000080: 0b20 f6ea 04de dae7 15f5 1be0 da01 e6f0
00000090: d9fa 0ffb effc 0ef4 dd0b ff0a 2627 2009
000000a0: 1de1 17e1 10eb f10c fcd8 0b16 e2db ee20
000000b0: f3e8 e4e4 1029 eef1 1a22 0914 0ee0 280a
000000c0: fef3 16eb eced f31d e908 1105 0de0 16db
000000d0: e2d9 de0b 0423 2307 0c24 f804 1af8 dadb
000000e0: 0b11 d9db f026 f6f8 280c f522 16e9 1805
000000f0: 0eeb e106 01e9 fce1 08dd 0925 22f9 fb11

sequential/dense_1/MatMul i1 [64, 64] scale=0.003056382 zero_point=0
-0.13142443 0.018338293 0.18032654 -0.06112764 0.22922866 0.07335317 0.1864393 -0.018338293
0.003056382 -0.12225528 -0.17115739 0.15893187 0.02750744 0.15587549 0.064184025 0.003056382
-0.19560845 -0.09474784 -0.16504464 -0.09474784 0.08863508 0.0336202 0.045845732 -0.17115739
0.12836805 0.11614252 -0.12225528 -0.16198824 0.085578695 0.14976272 0.08863508 -0.024451056
0.03056382 0.006112764 0.012225528 -0.16198824 0.18338293 -0.18949568 -0.20172122 -0.1528191
0.07946593 0.091691464 -0.10086061 -0.07335317 -0.24145418 -0.1344808 0.20172122 -0.17115739
-0.006112764 -0.18032654 -0.20783398 -0.1864393 0.0336202 0.051958494 -0.1528191 0.097804226
-0.05501488 -0.009169146 -0.1528191 0.08252232 0.0 0.05501488 0.12225528 -0.12531166
-0.1344808 -0.03056382 -0.17421378 -0.14059357 0.07946593 0.1344808 0.19866483 0.11002976
-0.113086134 0.2047776 -0.07335317 -0.042789347 0.19255207 -0.14976272 -0.08252232 0.036676586
-0.11614252 0.14670634 -0.02750744 0.051958494 0.18949568 0.14059357 0.14059357 -0.16504464
-0.18032654 0.08252232 0.0672404 0.10697337 -0.097804226 -0.021394674 -0.02750744 0.22922866
-0.24145418 0.07029679 -0.07640955 0.16198824 0.06112764 -0.0336202 0.085578695 0.091691464
-0.03056382 -0.11002976 0.0336202 0.14976272 0.23534141 -0.05501488 -0.14670634 0.1375372
0.003056382 0.18949568 -0.021394674 -0.17115739 0.12225528 0.08252232 -0.11614252 -0.21089037
0.21394674 0.1344808 -0.16504464 0.1191989 -0.19560845 0.06112764 0.14059357 -0.091691464
-0.16198824 0.07640955 0.16198824 0.048902113 -0.07640955 0.039732967 0.12836805 0.09474784
0.14059357 0.15587549 0.09474784 0.0 0.021394674 0.29646906 0.08863508 0.07335317
0.05501488 -0.14670634 -0.08252232 0.10697337 0.11002976 -0.16504464 0.16198824 0.097804226
-0.07335317 0.003056382 0.18032654 0.018338293 0.08863508 -0.018338293 0.20172122 0.11002976
-0.14364995 0.14059357 -0.07029679 -0.15893187 0.16810101 0.113086134 -0.22617227 -0.17727016
0.1864393 0.13142443 0.26590523 0.0 0.07029679 0.23534141 0.006112764 -0.18949568
-0.09474784 -0.07640955 0.14670634 0.15587549 -0.064184025 0.11002976 0.3209201 0.08252232
0.03056382 0.0336202 -0.1375372 0.20172122 0.006112764 -0.13142443 0.1344808 0.02750744
-0.1375372 -0.10697337 -0.06112764 0.14670634 0.006112764 -0.08252232 0.0 0.16504464
0.036676586 -0.051958494 -0.064184025 0.012225528 -0.21089037 -0.26590523 -0.20172122 -0.113086134
-0.12531166 -0.01528191 0.048902113 -0.10086061 -0.091691464 0.20172122 -0.045845732 0.1528191
0.024451056 -0.16504464 -0.05501488 -0.07335317 -0.02750744 0.20172122 -0.14364995 -0.14670634
-0.05501488 -0.15893187 0.16504464 0.20783398 0.10697337 0.16810101 0.21089037 -0.042789347
0.21700312 -0.18032654 -0.23228504 0.039732967 -0.18338293 -0.17115739 0.23228504 0.07640955
0.006112764 0.14976272 0.006112764 0.05501488 0.064184025 -0.10697337 -0.1864393 -0.01528191
0.024451056 -0.091691464 -0.10391699 0.19255207 0.03056382 0.003056382 0.19255207 -0.009169146
00000000: d506 3bec 4b18 3dfa 01d8 c834 0933 1501
00000010: c0e1 cae1 1d0b 0fc8 2a26 d8cb 1c31 1df8
00000020: 0a02 04cb 3cc2 bece 1a1e dfe8 b1d4 42c8
00000030: fec5 bcc3 0b11 ce20 eefd ce1b 0012 28d7
00000040: d4f6 c7d2 1a2c 4124 db43 e8f2 3fcf e50c
00000050: da30 f711 3e2e 2eca c51b 1623 e0f9 f74b
00000060: b117 e735 14f5 1c1e f6dc 0b31 4dee d02d
00000070: 013e f9c8 281b dabb 462c ca27 c014 2ee2
00000080: cb19 3510 e70d 2a1f 2e33 1f00 0761 1d18
00000090: 12d0 e523 24ca 3520 e801 3b06 1dfa 4224
000000a0: d12e e9cc 3725 b6c6 3d2b 5700 174d 02c2
000000b0: e1e7 3033 eb24 691b 0a0b d342 02d5 2c09
000000c0: d3dd ec30 02e5 0036 0cef eb04 bba9 bedb
000000d0: d7fb 10df e242 f132 08ca eee8 f742 d1d0
000000e0: eecc 3644 2337 45f2 47c5 b40d c4c8 4c19
000000f0: 0231 0212 15dd c3fb 08e2 de3f 0a01 3ffd

sequential/y_pred/MatMul i1 [5, 64] scale=0.004061218 zero_point=0
-0.089346796 -0.14214262 -0.32895866 0.09340801 -0.060918268 0.3898769 -0.25991794 -0.40206057
0.17869359 -0.15432627 -0.4304891 0.14214262 -0.089346796 -0.15432627 -0.37363204 -0.044673398
-0.51577467 0.28834647 -0.19899967 0.024367306 0.37769327 -0.32895866 -0.008122436 -0.24367307
0.044673398 0.004061218 -0.15026507 -0.3655096 0.121836536 -0.089346796 0.21524455 0.12589775
-0.23961185 0.3817545 -0.21930577 0.097469226 -0.35332596 0.37769327 0.24367307 0.19899967
-0.16650993 0.05685705 0.16650993 -0.2761628 -0.19493845 -0.22336699 0.17869359 -0.17057115
0.064979486 0.17869359 0.03655096 -0.3411423 -0.08122436 -0.05685705 0.23961185 0.024367306
0.28428525 -0.21930577 -0.46704006 0.33708107 -0.2517955 0.33301985 0.07716314 -0.14620385
0.21118332 -0.3898769 0.16244872 -0.05279583 0.09340801 -0.028428525 -0.3817545 -0.08122436
-0.3411423 0.064979486 0.15432627 0.2924077 0.048734613 0.25991794 0.012183653 0.316775
-0.23961185 0.0 -0.10559166 0.02030609 -0.19493845 0.25991794 0.2924077 0.1583875
-0.17869359 0.32489744 0.07310192 0.109652884 0.28428525 -0.51577467 -0.1380814 -0.2680404
-0.1583875 -0.12589775 -0.31271377 0.1137141 0.33708107 0.044673398 -0.32083622 0.20712212
-0.07310192 -0.25991794 0.004061218 -0.25991794 0.19087724 -0.07716314 -0.19087724 -0.1137141
0.2964689 0.35738719 -0.37769327 0.22336699 0.012183653 0.028428525 -0.14620385 0.39393812
-0.21524455 0.07310192 -0.097469226 -0.02030609 0.03655096 -0.12995897 -0.32083622 0.2761628
-0.25991794 0.30053014 0.09340801 0.05685705 0.28022403 0.024367306 -0.004061218 0.2680404
0.3411423 -0.07716314 0.03655096 -0.2761628 0.33301985 -0.08122436 0.0690407 -0.121836536
0.19899967 0.36144838 0.22336699 0.2517955 -0.10153045 -0.34520352 0.19899967 0.15026507
0.04061218 -0.060918268 0.07716314 -0.33301985 0.2274282 -0.15026507 -0.03655096 -0.2721016
0.0 -0.064979486 0.08122436 -0.2761628 -0.17869359 -0.121836536 0.19493845 0.25991794
-0.32895866 0.17869359 -0.012183653 -0.19087724 -0.14620385 -0.3411423 -0.31271377 0.14214262
-0.2721016 -0.085285574 0.37769327 -0.21930577 -0.02030609 -0.28834647 0.097469226 0.016244872
0.16650993 -0.028428525 0.18681602 0.23148942 0.15026507 0.28834647 -0.09340801 -0.09340801
-0.316775 -0.032489743 0.2477343 0.048734613 -0.1583875 0.04061218 0.31271377 -0.11777532
-0.32895866 -0.1583875 0.4061218 0.03655096 0.03655096 -0.2964689 0.05279583 0.19899967
0.07310192 -0.39393812 0.012183653 -0.39799935 0.16244872 -0.03655096 0.024367306 0.20712212
-0.44267276 -0.03655096 -0.26397917 -0.32083622 -0.17463237 -0.23148942 -0.17463237 -0.5076522
0.16244872 -0.36144838 0.35738719 -0.2274282 -0.21118332 -0.33708107 -0.08122436 0.060918268
0.37769327 -0.085285574 -0.097469226 0.21930577 0.19899967 -0.004061218 -0.004061218 -0.12589775
0.23555064 -0.064979486 -0.25585672 -0.19087724 0.35738719 0.28022403 0.41424423 0.064979486
0.08122436 -0.33708107 0.15026507 0.044673398 -0.32895866 -0.032489743 0.36144838 -0.19899967
00000000: eadd af17 f160 c09d 2cda 9623 eada a4f5
00000010: 8147 cf06 5daf fec4 0b01 dba6 1eea 351f
00000020: c55e ca18 a95d 3c31 d70e 29bc d0c9 2cd6
00000030: 102c 09ac ecf2 3b06 46ca 8d53 c252 13dc
00000040: 34a0 28f3 17f9 a2ec ac10 2648 0c40 034e
00000050: c500 e605 d040 4827 d450 121b 4681 debe
00000060: d9e1 b31c 530b b133 eec0 01c0 2fed d1e4
00000070: 4958 a337 0307 dc61 cb12 e8fb 09e0 b144
00000080: c04a 170e 4506 ff42 54ed 09bc 52ec 11e2
00000090: 3159 373e e7ab 3125 0af1 13ae 38db f7bd
000000a0: 00f0 14bc d4e2 3040 af2c fdd1 dcac b323
000000b0: bdeb 5dca fbb9 1804 29f9 2e39 2547 e9e9
000000c0: b2f8 3d0c d90a 4de3 afd9 6409 09b7 0d31
000000d0: 129f 039e 28f7 0633 93f7 bfb1 d5c7 d583
000000e0: 28a7 58c8 ccad ec0f 5deb e836 31ff ffe1
000000f0: 3af0 c1d1 5845 6610 14ad 250b aff8 59cf
